…
===================================
================== train info ==================
================================================
Top frequency words range : 10000
Embedding Vectors dimension : 128
Epoch Size : 15
Batch Size : 512
Learning Rate : 0.001
train x shape : (145791, 80)
train y shape : (145791,)
test x shape : (48995, 80)
test y shape : (48995,)
models :
----------------------------------------------------------------
        Layer (type)               Output Shape         Param #
================================================================
         Embedding-1              [-1, 80, 128]       1,280,256
            Conv2d-2            [-1, 80, 78, 1]          30,800
            Conv2d-3            [-1, 80, 77, 1]          41,040
            Conv2d-4            [-1, 80, 76, 1]          51,280
            Conv2d-5            [-1, 80, 75, 1]          61,520
           Dropout-6                  [-1, 320]               0
            Linear-7                    [-1, 1]             321
           Sigmoid-8                    [-1, 1]               0
================================================================
Total params: 1,465,217
Trainable params: 1,465,217
Non-trainable params: 0
----------------------------------------------------------------
Input size (MB): 0.00
Forward/backward pass size (MB): 0.27
Params size (MB): 5.59
Estimated Total Size (MB): 5.86
----------------------------------------------------------------
================================================
…
