…
===================================
================== train info ==================
================================================
Top frequency words range : 10000
Embedding Vectors dimension : 128
Epoch Size : 15
Batch Size : 512
Learning Rate : 0.001
train x shape : (145791, 80)
train y shape : (145791,)
test x shape : (48995, 80)
test y shape : (48995,)
models :
----------------------------------------------------------------
        Layer (type)               Output Shape         Param #
================================================================
         Embedding-1              [-1, 80, 128]       1,280,256
            Conv2d-2            [-1, 80, 78, 1]          30,800
            Conv2d-3            [-1, 80, 76, 1]          51,280
           Dropout-4                  [-1, 160]               0
            Linear-5                    [-1, 1]             161
           Sigmoid-6                    [-1, 1]               0
================================================================
Total params: 1,362,497
Trainable params: 1,362,497
Non-trainable params: 0
----------------------------------------------------------------
Input size (MB): 0.00
Forward/backward pass size (MB): 0.17
Params size (MB): 5.20
Estimated Total Size (MB): 5.37
----------------------------------------------------------------
================================================
…
