…
===================================
================== train info ==================
================================================
Top frequency words range : 10000
Embedding Vectors dimension : 128
Epoch Size : 15
Batch Size : 512
Learning Rate : 0.001
train x shape : (145791, 80)
train y shape : (145791,)
test x shape : (48995, 80)
test y shape : (48995,)
models :
----------------------------------------------------------------
        Layer (type)               Output Shape         Param #
================================================================
         Embedding-1              [-1, 80, 128]       1,280,256
            Conv2d-2            [-1, 80, 78, 1]          30,800
            Conv2d-3            [-1, 80, 76, 1]          51,280
            Conv2d-4            [-1, 80, 74, 1]          71,760
           Dropout-5                  [-1, 240]               0
            Linear-6                    [-1, 1]             241
           Sigmoid-7                    [-1, 1]               0
================================================================
Total params: 1,434,337
Trainable params: 1,434,337
Non-trainable params: 0
----------------------------------------------------------------
Input size (MB): 0.00
Forward/backward pass size (MB): 0.22
Params size (MB): 5.47
Estimated Total Size (MB): 5.69
----------------------------------------------------------------
================================================
…
